ML/Model/model_schedmate.tflite (tflite, 17048 bytes, 5 tensors)

arith.constant f4 [128]
0.006596352 0.0047204974 0.0022461829 -0.037309065 0.0029548837 0.07684998 0.011070735 0.019502781
0.03131092 0.013696989 -0.031376738 -0.016959129 0.02136996 0.015355626 0.0634422 -0.0030509029
0.022784177 0.005386994 0.007668058 -0.023958921 -0.019714588 0.021546252 0.036491577 0.0034271972
-0.02478617 0.031314395 -0.03218539 -0.031599097 0.005834028 0.017804766 -0.028976213 -0.029003944
0.036391895 -0.08051034 0.0056897397 0.03184042 -0.016686147 0.031728014 -0.020725736 0.032997552
0.0409187 0.006447632 -0.019688716 0.0069348966 -0.015065399 0.015475355 -0.022546219 -0.03490096
-0.020791546 0.014119697 0.036567893 -0.0069986605 0.0027220065 -0.004016697 -0.018837431 -0.0018377436
0.0062588905 0.044529464 0.046984676 -0.014350376 -0.0135772675 -0.043648716 0.032597408 0.035730183
0.027745662 -0.023601463 -0.0063292086 0.10988376 0.035832733 -0.02341917 0.05077298 -0.027286682
-0.00091984926 -0.019501887 0.03704749 -0.00699481 0.031486128 0.023135468 -0.026991928 -0.026846392
0.041962557 -0.016877443 0.030556979 -0.001853535 -0.032461815 -0.008783039 0.038381968 0.0034710853
-0.024665387 -0.0021306677 -0.0013673649 -0.012206814 0.07204478 0.068873115 0.013556102 -0.040880334
0.046000056 -0.032483626 -0.016398244 -0.011660593 0.0043363436 -0.004538761 0.011985358 0.024215676
-0.0235471 0.042243533 0.06765152 0.020431167 0.035663716 0.020185102 0.02379369 0.05903641
0.005459965 0.046199135 0.056419596 0.06525218 -0.008148591 -0.025694974 0.030037696 -0.0050546234
0.022921398 0.033174045 -0.019295404 -0.039354548 0.047680713 -0.00887021 0.022013752 -0.020774128
00000000: 3626 d83b 67ae 9a3b b234 133b 64d1 18bd
00000010: b9a6 413b 8663 9d3d 0762 353c 4cc4 9f3c
00000020: e13f 003d 5669 603c e584 00bd dfed 8abc
00000030: 0e10 af3c 2a96 7b3c fced 813d a8f1 47bb
00000040: e2a5 ba3c 6285 b03b 5544 fb3b 8045 c4bc
00000050: 7d80 a1bc c481 b03c 3178 153d d49a 603b
00000060: 5e0c cbbc 8643 003d d4d4 03bd 0e6e 01bd
00000070: 602b bf3b 4ddb 913c 865f edbc ae99 edbc
00000080: ab0f 153d 9be2 a4bd ff70 ba3b 1a6b 023d
00000090: 63b1 88bc 3cf5 013d 05c9 a9bc 7128 073d
000000a0: 5e9a 273d a846 d33b 3b4a a1bc 213e e33b
000000b0: ddd4 76bc 588c 7d3c d9b2 b8bc 4ff4 0ebd
000000c0: 0853 aabc 4d56 673c 37c8 153d 0555 e5bb
000000d0: b163 323b 7f9e 83bb f550 9abc 71e0 f0ba
000000e0: 6117 cd3b 8764 363d 0173 403d d71d 6bbc
000000f0: 3073 5ebc ffc8 32bd dc84 053d d059 123d
00000100: df4a e33c db57 c1bc 4065 cfbb bd0a e13d
00000110: 58c5 123d 8fd9 bfbc 54f7 4f3d 5288 dfbc
00000120: 0a22 71ba 6cc2 9fbc 1cbf 173d b834 e5bb
00000130: 99f7 003d 9886 bd3c 2d1e ddbc f7ec dbbc
00000140: eee0 2b3d 9042 8abc a152 fa3c 50f2 f2ba
00000150: aef6 04bd bce6 0fbc 6936 1d3d 267b 633b
00000160: 110f cabc aca2 0bbb 2739 b3ba 17ff 47bc
00000170: 378c 933d 590d 8d3d 6a1a 5e3c 2372 27bd
00000180: 8e6a 3c3d 8d0d 05bd 9c55 86bc 120c 3fbc
00000190: e317 8e3b e3b9 94bb 3c5e 443c f45f c63c
000001a0: d9e5 c0bc 8e07 2d3d e18c 8a3d 435f a73c
000001b0: 1e14 123d 3a5b a53c fcea c23c 2ad0 713d
000001c0: 82e9 b23b 4e3b 3d3d 3c18 673d efa2 853d
000001d0: ab81 05bc 447e d2bc 9d11 f63c 41a1 a5bb
000001e0: a8c5 bb3c 82e1 073d 6511 9ebc 3c32 21bd
000001f0: da4c 433d 5b54 11bc 2f56 b43c 812e aabc

arith.constant1 f4 [64]
-0.7394466 0.078164704 0.2441545 -0.4887844 1.0912695 -0.23743996 0.28473076 0.0956045
0.069136724 0.4041914 0.015064643 -0.07155472 -0.19070566 -0.44112882 0.29646772 0.93310344
-0.5855025 -0.5973613 -0.1294183 -0.12048094 0.17715992 0.6922541 -0.66321486 -1.1006566
0.4077065 -0.7209334 0.25314355 0.6209652 -0.09855059 -0.025585735 0.45747998 0.21922305
-0.10990715 -0.2960046 0.4367028 1.019862 0.70237523 0.79875064 -0.12683885 -1.159934
-0.6305495 0.58958304 -0.25187534 0.18078645 0.10176987 0.4912297 -0.8512669 -0.013279364
0.43117023 0.8278244 -0.85151464 0.26984835 -0.1381531 -0.4379603 0.37812465 -0.8206507
0.39096984 0.9062162 -0.001605243 0.64362246 0.113165565 0.39480904 -0.11315231 -0.8314779
00000000: 5f4c 3dbf d114 a03d a303 7a3e f341 fabe
00000010: b8ae 8b3f 7623 73be 3bc8 913e 4bcc c33d
00000020: 8e97 8d3d 2df2 ce3e b1d1 763c 488b 92bd
00000030: 5848 43be a3db e1be 9eca 973e dedf 6e3f
00000040: 7ee3 15bf acec 18bf 3b86 04be b6be f6bd
00000050: 6969 353e 9137 313f 73c8 29bf 51e2 8cbf
00000060: e8be d03e 178f 38bf 089c 813e 93f7 1e3f
00000070: e4d4 c9bd 2d99 d1bc d13a ea3e 027c 603e
00000080: 0017 e1bd ea8d 97be 8297 df3e d78a 823f
00000090: ddce 333f ec7a 4c3f 0be2 01be b878 94bf
000000a0: b16b 21bf eaee 163f cef5 80be 1520 393e
000000b0: b96c d03d 7682 fb3e a1ec 59bf b191 59bc
000000c0: 58c2 dc3e 4dec 533f ddfc 59bf 9029 8a3e
000000d0: 0278 0dbe 553c e0be 8e99 c13e 2a16 52bf
000000e0: 332d c83e c9fd 673f 0467 d2ba 71c4 243f
000000f0: 59c3 e73d 6924 ca3e 66bc e7bd bcdb 54bf

arith.constant2 f4 [1, 64]
-0.16655374 -0.14549617 -0.13664752 0.14040978 -0.17481206 -0.14637384 -0.1524939 0.16987711
0.14310585 0.15741587 -0.13504577 0.16640517 -0.15374176 0.14339311 0.15891619 0.13858269
-0.1744366 0.14421938 0.14762162 0.16353214 0.15474027 -0.15650287 -0.17654656 0.13887107
0.14291868 0.14578934 0.15539901 0.15536197 -0.15449366 0.13458772 -0.17062537 -0.16284434
0.14679435 -0.13846043 -0.15171881 0.16159482 -0.15234873 0.14391716 -0.15333901 0.15006272
-0.13584097 0.14281406 0.16677788 0.14521407 0.13591665 0.14379662 -0.14291541 -0.16398245
-0.15986238 0.13109823 -0.14031474 0.16329238 0.14887737 0.16053265 -0.13924216 -0.13100874
0.11843235 -0.14791524 0.13329607 0.15717527 0.16133347 -0.17854168 0.14394857 -0.13284607
00000000: 108d 2abe f3fc 14be 54ed 0bbe 95c7 0f3e
00000010: ef01 33be 06e3 15be 5c27 1cbe 44f4 2d3e
00000020: 578a 123e a031 213e 7049 0abe 1e66 2a3e
00000030: 7b6e 1dbe a5d5 123e edba 223e 9fe8 0d3e
00000040: 829f 32be 3fae 133e 1f2a 173e f874 273e
00000050: 3c74 1e3e 4a42 20be 9fc8 34be 3834 0e3e
00000060: 4659 123e cd49 153e eb20 1f3e 3517 1f3e
00000070: 9633 1ebe 5dd1 093e 6bb8 2ebe abc0 26be
00000080: 4251 163e 92c8 0dbe 2d5c 1bbe 1d79 253e
00000090: 4e01 1cbe 055f 133e e704 1dbe 0baa 193e
000000a0: e519 0bbe d93d 123e d2c7 2a3e ffb2 143e
000000b0: bc2d 0b3e 6c3f 133e 6b58 12be 04eb 27be
000000c0: f7b2 23be 9d3e 063e abae 0fbe 1e36 273e
000000d0: 4f73 183e ac62 243e 7f95 0ebe 2827 06be
000000e0: a98c f23d 1877 17be c47e 083e 8ef2 203e
000000f0: 9a34 253e a1d3 36be 4167 133e cd08 08be

tfl.pseudo_qconst i1 [64, 128]
-10 93 9 123 109 31 -81 29
-33 49 -38 111 -38 -62 -62 -18
81 124 51 -49 -39 -22 16 61
106 41 81 -13 45 72 12 -37
-71 16 69 2 -52 47 -36 99
49 -27 23 80 -58 -35 -48 100
-83 -41 -83 55 -77 21 108 75
111 -101 -10 109 -52 101 51 -91
97 76 64 -17 4 47 -50 -61
-40 15 -6 103 13 116 -29 33
-22 -112 88 -26 40 77 -78 -73
60 -21 4 19 -89 -31 -18 66
-3 -60 27 70 10 82 22 -75
127 20 6 -29 81 5 -42 55
-81 -20 -7 -92 -48 2 -48 -20
42 61 47 12 66 78 46 -69
33 11 -26 -68 76 -33 54 -28
-38 14 -4 8 -43 -76 43 10
53 -38 -29 48 12 102 65 -18
-65 51 -116 -52 -73 -64 -40 58
-89 -62 14 -9 14 8 88 -59
-50 -49 72 -86 8 92 -43 -66
-101 31 -23 15 18 -30 2 56
21 -46 48 -42 77 70 52 72
-28 -37 -10 -8 38 20 51 -127
-81 -4 67 73 -24 32 58 52
-1 103 4 33 89 61 6 -30
-12 -51 22 -34 35 -51 3 67
-49 76 -8 59 -67 32 78 26
-55 -67 9 -71 -7 -45 62 20
37 80 44 -69 74 -28 21 -68
25 -51 3 76 -23 52 -26 -22
00000000: f65d 097b 6d1f af1d df31 da6f dac2 c2ee
00000010: 517c 33cf d9ea 103d 6a29 51f3 2d48 0cdb
00000020: b910 4502 cc2f dc63 31e5 1750 c6dd d064
00000030: add7 ad37 b315 6c4b 6f9b f66d cc65 33a5
00000040: 614c 40ef 042f cec3 d80f fa67 0d74 e321
00000050: ea90 58e6 284d b2b7 3ceb 0413 a7e1 ee42
00000060: fdc4 1b46 0a52 16b5 7f14 06e3 5105 d637
00000070: afec f9a4 d002 d0ec 2a3d 2f0c 424e 2ebb
00000080: 210b e6bc 4cdf 36e4 da0e fc08 d5b4 2b0a
00000090: 35da e330 0c66 41ee bf33 8ccc b7c0 d83a
000000a0: a7c2 0ef7 0e08 58c5 cecf 48aa 085c d5be
000000b0: 9b1f e90f 12e2 0238 15d2 30d6 4d46 3448
000000c0: e4db f6f8 2614 3381 affc 4349 e820 3a34
000000d0: ff67 0421 593d 06e2 f4cd 16de 23cd 0343
000000e0: cf4c f83b bd20 4e1a c9bd 09b9 f9d3 3e14
000000f0: 2550 2cbb 4ae4 15bc 19cd 034c e934 e6ea

sequential_1/dense_1/MatMul i1 [128, 25]
-5 24 118 76 -80 60 -89 127
-38 -14 2 55 -44 -25 9 -89
-66 21 108 -68 61 19 -25 11
78 -24 -45 47 -79 91 -90 71
-58 -50 127 34 118 -43 -103 117
1 56 -59 -84 53 87 49 114
-72 -89 86 67 77 0 21 54
-52 121 60 127 -4 -6 50 -86
81 -78 6 107 89 41 65 -110
-51 101 20 37 127 49 41 -23
43 97 68 16 52 79 -14 64
102 49 32 38 -11 -102 81 100
117 -119 -28 -55 90 -49 65 -106
-12 -75 -23 92 -88 52 -71 -127
-64 32 108 57 -34 40 104 -66
-16 39 54 -15 -69 -108 49 -66
-61 -94 8 3 -58 -77 59 57
72 127 -62 -46 61 16 -61 47
34 -80 -81 83 59 -42 40 82
-29 85 -127 -113 0 -44 52 -71
64 -9 -61 94 -49 -51 -77 34
22 -75 92 15 62 -82 16 -127
-103 -29 -82 -6 8 61 -47 -105
-51 3 -125 81 -41 -2 -91 -3
-61 24 -93 47 -94 -62 77 106
69 -87 -42 127 30 -26 2 -127
-56 -46 24 46 57 -62 -68 38
44 14 -62 71 -72 93 -113 41
-61 39 49 -93 -127 -70 -90 15
66 -11 48 102 90 106 40 -82
-75 -86 56 -39 6 58 8 84
-72 29 10 -48 27 -30 54 -66
00000000: fb18 764c b03c a77f daf2 0237 d4e7 09a7
00000010: be15 6cbc 3d13 e70b 4ee8 d32f b15b a647
00000020: c6ce 7f22 76d5 9975 0138 c5ac 3557 3172
00000030: b8a7 5643 4d00 1536 cc79 3c7f fcfa 32aa
00000040: 51b2 066b 5929 4192 cd65 1425 7f31 29e9
00000050: 2b61 4410 344f f240 6631 2026 f59a 5164
00000060: 7589 e4c9 5acf 4196 f4b5 e95c a834 b981
00000070: c020 6c39 de28 68be f027 36f1 bb94 31be
00000080: c3a2 0803 c6b3 3b39 487f c2d2 3d10 c32f
00000090: 22b0 af53 3bd6 2852 e355 818f 00d4 34b9
000000a0: 40f7 c35e cfcd b322 16b5 5c0f 3eae 1081
000000b0: 99e3 aefa 083d d197 cd03 8351 d7fe a5fd
000000c0: c318 a32f a2c2 4d6a 45a9 d67f 1ee6 0281
000000d0: c8d2 182e 39c2 bc26 2c0e c247 b85d 8f29
000000e0: c327 31a3 81ba a60f 42f5 3066 5a6a 28ae
000000f0: b5aa 38d9 063a 0854 b81d 0ad0 1be2 36be
